feats/fake/vid25fps_w8sdYZjs-1I.npz (npz, 364400 bytes, 3 tensors)

boxes f4 [1336, 4]
491.1349 317.1223 547.50366 373.4911 492.48145 317.62292 549.1019 374.2434
495.3431 317.73743 552.20135 374.59564 496.98987 318.50836 552.129 373.64752
496.43573 317.4948 553.51666 374.57574 496.6237 318.59195 553.48065 375.44894
496.08575 317.67902 555.0472 376.64044 496.6871 317.9868 555.0721 376.37173
496.18652 317.87274 555.7843 377.47052 497.55554 317.391 557.3563 377.19177
497.5123 317.9394 556.9935 377.42065 496.7372 316.49075 557.6617 377.41525
496.87042 316.97958 556.5992 376.70834 496.10806 315.20102 556.61755 375.71048
496.38754 314.59866 556.8154 375.02658 496.59714 313.34885 557.89435 374.64603
497.32712 311.98386 559.0223 373.679 498.4405 309.20282 560.79755 371.55988
499.4113 306.7762 562.27765 369.6426 500.06406 304.11954 563.60974 367.66525
500.19284 301.5629 563.7819 365.15195 500.274 298.4788 564.6541 362.85892
500.3869 297.17514 564.1036 360.8918 500.09235 294.27762 564.4776 358.66287
499.65497 290.0291 566.3858 356.75995 499.9376 286.067 566.8187 352.94815
498.68408 283.25616 566.65137 351.22345 498.65176 281.90335 566.0045 349.25607
498.8072 280.20703 566.3193 347.71912 499.7243 279.54065 566.305 346.12134
499.95563 278.22275 567.2469 345.514 501.20682 277.47293 568.1875 344.45358
502.38004 276.65036 569.27057 343.54092 503.9171 273.60666 571.8174 341.50693
503.96582 270.90128 573.35034 340.2858 504.44083 271.81314 572.9857 340.358
505.4249 269.53653 575.2116 339.3232 505.98767 267.6646 576.2632 337.94012
506.4959 266.5444 576.92474 336.97324 506.76117 264.24292 577.6646 335.14636
505.82864 261.7241 577.27075 333.16617 506.10596 260.03003 578.11426 332.03833
505.44153 259.18594 577.5835 331.3279 505.33975 259.4714 578.33606 332.46768
504.69528 259.97858 578.2393 333.52258 503.73236 259.38507 578.58185 334.23456
506.432 261.2376 581.1283 335.9339 510.58286 262.15668 585.21643 336.79028
513.25525 262.14923 589.58167 338.47565 517.9651 262.25433 595.06494 339.3542
522.21783 261.6766 600.0805 339.5392 526.3319 259.22263 604.8275 337.71823
529.398 259.26813 607.6807 337.55084 531.69867 257.02206 611.4301 336.7535
531.4805 254.04883 614.7214 337.28967 534.3815 253.64362 615.90393 335.16608
534.9488 252.08286 617.65216 334.78622 535.50494 252.11363 618.3107 334.91943
534.9443 250.03728 621.38727 336.48032 536.28546 251.69844 619.7475 335.16043
536.2317 249.8457 623.18005 336.79413 538.1488 250.86775 623.6637 336.38263
539.25354 250.63145 626.1659 337.5438 541.2002 250.20297 628.8701 337.8729
00000000: 4491 f543 a88f 9e43 3ce0 0844 dcbe ba43
00000010: a03d f643 bccf 9e43 8646 0944 281f bb43
00000020: ebab f743 64de 9e43 e30c 0a44 3e4c bb43
00000030: b47e f843 1241 9f43 4208 0a44 e2d2 ba43
00000040: c637 f843 56bf 9e43 1161 0a44 b249 bb43
00000050: d54f f843 c54b 9f43 c35e 0a44 77b9 bb43
00000060: fa0a f843 ead6 9e43 05c3 0a44 fa51 bc43
00000070: f357 f843 4ffe 9e43 9dc4 0a44 952f bc43
00000080: e017 f843 b6ef 9e43 32f2 0a44 3abc bc43
00000090: 1cc7 f843 0cb2 9e43 ce56 0b44 8c98 bc43
000000a0: 93c1 f843 3ef8 9e43 963f 0b44 d8b5 bc43
000000b0: 5d5e f843 d13e 9e43 596a 0b44 27b5 bc43
000000c0: 6a6f f843 637d 9e43 5926 0b44 ab5a bc43
000000d0: d50d f843 bb99 9d43 8627 0b44 f1da bb43
000000e0: 9b31 f843 a14c 9d43 3034 0b44 6783 bb43
000000f0: 6f4c f843 a7ac 9c43 3d79 0b44 b152 bb43
00000100: dfa9 f843 effd 9b43 6dc1 0b44 e9d6 ba43
00000110: 6238 f943 f699 9a43 0b33 0c44 aac7 b943
00000120: a5b4 f943 5b63 9943 c591 0c44 41d2 b843
00000130: 3308 fa43 4d0f 9843 06e7 0c44 27d5 b743
00000140: af18 fa43 0dc8 9643 0bf2 0c44 7393 b643
00000150: 1223 fa43 493d 9543 dd29 0d44 f16d b543
00000160: 8631 fa43 6b96 9443 a106 0d44 2772 b443
00000170: d20b fa43 8923 9343 911e 0d44 d954 b343
00000180: d6d3 f943 ba03 9143 b198 0d44 4661 b243
00000190: 03f8 f943 9308 8f43 66b4 0d44 5d79 b043
000001a0: 9057 f943 caa0 8d43 b0a9 0d44 9a9c af43
000001b0: 6d53 f943 a1f3 8c43 4a80 0d44 c7a0 ae43
000001c0: 5267 f943 801a 8c43 6f94 0d44 0cdc ad43
000001d0: b6dc f943 34c5 8b43 8593 0d44 880f ad43
000001e0: 52fa f943 831c 8b43 cdcf 0d44 cbc1 ac43
000001f0: 799a fa43 89bc 8a43 000c 0e44 0f3a ac43
00000200: a530 fb43 3f53 8a43 5151 0e44 3dc5 ab43
00000210: 64f5 fb43 a7cd 8843 50f4 0e44 e3c0 aa43
00000220: a0fb fb43 5d73 8743 6c56 0f44 9524 aa43
00000230: 6d38 fc43 15e8 8743 163f 0f44 d32d aa43
00000240: 63b6 fc43 adc4 8643 8bcd 0f44 5fa9 a943
00000250: 6cfe fc43 12d5 8543 d810 1044 56f8 a843
00000260: 7a3f fd43 af45 8543 2f3b 1044 937c a843
00000270: 6e61 fd43 181f 8443 896a 1044 bc92 a743
00000280: 11ea fc43 afdc 8243 5451 1044 4595 a643
00000290: 900d fd43 d803 8243 5087 1044 e804 a643
000002a0: 84b8 fc43 cd97 8143 5865 1044 f9a9 a543
000002b0: 7dab fc43 57bc 8143 8295 1044 dd3b a643
000002c0: ff58 fc43 42fd 8143 518f 1044 e4c2 a643
000002d0: bedd fb43 4ab1 8143 3da5 1044 061e a743
000002e0: 4c37 fd43 6a9e 8243 3648 1144 8af7 a743
000002f0: 9b4a ff43 0e14 8343 da4d 1244 2865 a843
00000300: 5650 0044 1a13 8343 3a65 1344 e23c a943
00000310: c47d 0144 8e20 8343 28c4 1444 56ad a943
00000320: f18d 0244 9bd6 8243 2705 1644 05c5 a943
00000330: 3e95 0344 7f9c 8143 f634 1744 efdb a843
00000340: 7959 0444 52a2 8143 91eb 1744 82c6 a843
00000350: b7ec 0444 d382 8043 87db 1844 7360 a843
00000360: c1de 0444 800c 7e43 2bae 1944 14a5 a843
00000370: 6a98 0544 c4a4 7d43 daf9 1944 4295 a743
00000380: b9bc 0544 3615 7c43 bd69 1a44 a364 a743
00000390: 51e0 0544 171d 7c43 e393 1a44 b075 a743
000003a0: 6fbc 0544 8b09 7a43 c958 1b44 7b3d a843
000003b0: 4512 0644 cdb2 7b43 d7ef 1a44 8994 a743
000003c0: d40e 0644 80d8 7943 86cb 1b44 a665 a843
000003d0: 8689 0644 25de 7a43 7aea 1b44 fa30 a843
000003e0: 3ad0 0644 a7a1 7a43 9e8a 1c44 9bc5 a843
000003f0: d04c 0744 f633 7a43 b037 1d44 bbef a843

timestamp f4 [1336]
0.16 0.2 0.24 0.28 0.32 0.36 0.4 0.44
0.48 0.52 0.56 0.6 0.64 0.68 0.72 0.76
0.8 0.84 0.88 0.92 0.96 1.0 1.04 1.08
1.12 1.16 1.2 1.24 1.28 1.32 1.36 1.4
1.44 1.48 1.52 1.56 1.6 1.64 1.68 1.72
1.76 1.8 1.84 1.88 1.92 1.96 2.0 2.04
2.08 2.12 2.16 2.2 2.24 2.28 2.32 2.36
2.4 2.44 2.48 2.52 2.56 2.6 2.64 2.68
2.72 2.76 2.8 2.84 2.88 2.92 2.96 3.0
3.04 3.08 3.12 3.16 3.2 3.24 3.28 3.32
3.36 3.4 3.44 3.48 3.52 3.56 3.6 3.64
3.68 3.72 3.76 3.8 3.84 3.88 3.92 3.96
4.0 4.04 4.08 4.12 4.16 4.2 4.24 4.28
4.32 4.36 4.4 4.44 4.48 4.52 4.56 4.6
4.64 4.68 4.72 4.76 4.8 4.84 4.88 4.92
4.96 5.0 5.04 5.08 5.12 5.16 5.2 5.24
5.28 5.32 5.36 5.4 5.44 5.48 5.52 5.56
5.6 5.64 5.68 5.72 5.76 5.8 5.84 5.88
5.92 5.96 6.0 6.04 6.08 6.12 6.16 6.2
6.24 6.28 6.32 6.36 6.4 6.44 6.48 6.52
6.56 6.6 6.64 6.68 6.72 6.76 6.8 6.84
6.88 6.92 6.96 7.0 7.04 7.08 7.12 7.16
7.2 7.24 7.28 7.32 7.36 7.4 7.44 7.48
7.52 7.56 7.6 7.64 7.68 7.72 7.76 7.8
7.84 7.88 7.92 7.96 8.0 8.04 8.08 8.12
8.16 8.2 8.24 8.28 8.32 8.36 8.4 8.44
8.48 8.52 8.56 8.6 8.64 8.68 8.72 8.76
8.8 8.84 8.88 8.92 8.96 9.0 9.04 9.08
9.12 9.16 9.2 9.24 9.28 9.32 9.36 9.4
9.44 9.48 9.52 9.56 9.6 9.64 9.68 9.72
9.76 9.8 9.84 9.88 9.92 9.96 10.0 10.04
10.08 10.12 10.16 10.2 10.24 10.28 10.32 10.36
00000000: 0ad7 233e cdcc 4c3e 8fc2 753e 295c 8f3e
00000010: 0ad7 a33e ec51 b83e cdcc cc3e ae47 e13e
00000020: 8fc2 f53e b81e 053f 295c 0f3f 9a99 193f
00000030: 0ad7 233f 7b14 2e3f ec51 383f 5c8f 423f
00000040: cdcc 4c3f 3d0a 573f ae47 613f 1f85 6b3f
00000050: 8fc2 753f 0000 803f b81e 853f 713d 8a3f
00000060: 295c 8f3f e17a 943f 9a99 993f 52b8 9e3f
00000070: 0ad7 a33f c3f5 a83f 7b14 ae3f 3333 b33f
00000080: ec51 b83f a470 bd3f 5c8f c23f 14ae c73f
00000090: cdcc cc3f 85eb d13f 3d0a d73f f628 dc3f
000000a0: ae47 e13f 6666 e63f 1f85 eb3f d7a3 f03f
000000b0: 8fc2 f53f 48e1 fa3f 0000 0040 5c8f 0240
000000c0: b81e 0540 14ae 0740 713d 0a40 cdcc 0c40
000000d0: 295c 0f40 85eb 1140 e17a 1440 3d0a 1740
000000e0: 9a99 1940 f628 1c40 52b8 1e40 ae47 2140
000000f0: 0ad7 2340 6666 2640 c3f5 2840 1f85 2b40
00000100: 7b14 2e40 d7a3 3040 3333 3340 8fc2 3540
00000110: ec51 3840 48e1 3a40 a470 3d40 0000 4040
00000120: 5c8f 4240 b81e 4540 14ae 4740 713d 4a40
00000130: cdcc 4c40 295c 4f40 85eb 5140 e17a 5440
00000140: 3d0a 5740 9a99 5940 f628 5c40 52b8 5e40
00000150: ae47 6140 0ad7 6340 6666 6640 c3f5 6840
00000160: 1f85 6b40 7b14 6e40 d7a3 7040 3333 7340
00000170: 8fc2 7540 ec51 7840 48e1 7a40 a470 7d40
00000180: 0000 8040 ae47 8140 5c8f 8240 0ad7 8340
00000190: b81e 8540 6666 8640 14ae 8740 c3f5 8840
000001a0: 713d 8a40 1f85 8b40 cdcc 8c40 7b14 8e40
000001b0: 295c 8f40 d7a3 9040 85eb 9140 3333 9340
000001c0: e17a 9440 8fc2 9540 3d0a 9740 ec51 9840
000001d0: 9a99 9940 48e1 9a40 f628 9c40 a470 9d40
000001e0: 52b8 9e40 0000 a040 ae47 a140 5c8f a240
000001f0: 0ad7 a340 b81e a540 6666 a640 14ae a740
00000200: c3f5 a840 713d aa40 1f85 ab40 cdcc ac40
00000210: 7b14 ae40 295c af40 d7a3 b040 85eb b140
00000220: 3333 b340 e17a b440 8fc2 b540 3d0a b740
00000230: ec51 b840 9a99 b940 48e1 ba40 f628 bc40
00000240: a470 bd40 52b8 be40 0000 c040 ae47 c140
00000250: 5c8f c240 0ad7 c340 b81e c540 6666 c640
00000260: 14ae c740 c3f5 c840 713d ca40 1f85 cb40
00000270: cdcc cc40 7b14 ce40 295c cf40 d7a3 d040
00000280: 85eb d140 3333 d340 e17a d440 8fc2 d540
00000290: 3d0a d740 ec51 d840 9a99 d940 48e1 da40
000002a0: f628 dc40 a470 dd40 52b8 de40 0000 e040
000002b0: ae47 e140 5c8f e240 0ad7 e340 b81e e540
000002c0: 6666 e640 14ae e740 c3f5 e840 713d ea40
000002d0: 1f85 eb40 cdcc ec40 7b14 ee40 295c ef40
000002e0: d7a3 f040 85eb f140 3333 f340 e17a f440
000002f0: 8fc2 f540 3d0a f740 ec51 f840 9a99 f940
00000300: 48e1 fa40 f628 fc40 a470 fd40 52b8 fe40
00000310: 0000 0041 d7a3 0041 ae47 0141 85eb 0141
00000320: 5c8f 0241 3333 0341 0ad7 0341 e17a 0441
00000330: b81e 0541 8fc2 0541 6666 0641 3d0a 0741
00000340: 14ae 0741 ec51 0841 c3f5 0841 9a99 0941
00000350: 713d 0a41 48e1 0a41 1f85 0b41 f628 0c41
00000360: cdcc 0c41 a470 0d41 7b14 0e41 52b8 0e41
00000370: 295c 0f41 0000 1041 d7a3 1041 ae47 1141
00000380: 85eb 1141 5c8f 1241 3333 1341 0ad7 1341
00000390: e17a 1441 b81e 1541 8fc2 1541 6666 1641
000003a0: 3d0a 1741 14ae 1741 ec51 1841 c3f5 1841
000003b0: 9a99 1941 713d 1a41 48e1 1a41 1f85 1b41
000003c0: f628 1c41 cdcc 1c41 a470 1d41 7b14 1e41
000003d0: 52b8 1e41 295c 1f41 0000 2041 d7a3 2041
000003e0: ae47 2141 85eb 2141 5c8f 2241 3333 2341
000003f0: 0ad7 2341 e17a 2441 b81e 2541 8fc2 2541

3ddfa f4 [1336, 62]
0.0005180916 -8.397565e-05 -0.00023982217 74.72942 4.2664684e-05 0.00059216993 -0.00012400317 81.63981
0.00024486732 9.11894e-05 0.0005208284 -66.67159 -59172.0 46102.68 15165.027 -120136.53
196115.66 -157584.77 -5416.95 41925.906 -27837.883 61012.17 -70864.87 13210.875
-27004.902 -7766.921 -14290.164 -4732.4688 -31351.094 -18285.441 -27070.016 -5999.3823
-15124.803 -10753.424 -6150.8975 -18299.928 -14478.185 3590.0972 -7401.1704 -2438.5361
-2053.6052 2231.3733 -922.35864 -1125.7272 37.57788 -714.7068 -8317.238 -8137.135
1598.4026 4071.5615 -1138.5874 3474.2568 -1.2286083 -0.5976632 -0.15636298 -0.29992828
0.028021662 -0.07605368 -0.04275787 -0.0030158013 0.009384761 0.0039856434 0.00045738817 -7.125421e-05
-0.00034513668 83.71631 8.093761e-06 0.0005976571 -0.000107228916 81.96738 0.00035160803 7.364446e-05
0.00045656727 -66.671455 -212190.75 -36131.836 72257.2 -135294.0 233592.98 -156660.58
-10575.148 43488.977 -34385.61 60225.57 -73416.63 -536.3828 -25915.951 -6975.8896
-12080.124 -11107.879 -36333.16 -21499.633 -26823.389 -8297.293 -15080.6875 -9106.846
-6385.952 -18334.498 -15050.896 5500.776 -6658.359 -2974.0156 -2654.002 1992.6163
-1077.3787 -797.4608 215.88062 1556.5928 -10022.672 -8531.547 1936.8641 4402.954
-341.09338 3139.845 -1.8347421 -0.6944848 -0.026225194 -0.25723457 0.020490963 -0.123170406
-0.06259506 0.0062818825 0.0059851 0.019042864 0.00045005124 -6.2357554e-05 -0.000356771 79.52432
-1.1500711e-05 0.00058652094 -0.00012358605 84.077225 0.00035884682 8.7014225e-05 0.00044806904 -66.671616
-163793.2 -2274.211 -50645.117 -141312.34 221261.66 -209016.45 29657.51 32848.137
-18413.781 66228.695 -99250.44 -2193.0742 -28621.977 -6551.9453 -6425.201 -16458.385
-42255.363 -26649.656 -24568.312 -12411.027 -19533.85 -12307.675 -4351.3945 -13876.356
-16981.697 6742.731 -6401.947 -2476.7402 -1471.0122 1868.7285 -716.13916 22.092407
624.8684 -814.5676 -9259.024 -8801.294 2551.9446 3450.076 -727.2121 3316.083
-1.5046562 -0.386401 -0.20647475 -0.2720835 0.034593046 -0.07850209 0.024427839 -0.036139578
0.009820914 -0.0072079003 0.00049204024 -6.5763765e-05 -0.0003779031 79.558975 -1.8140443e-05 0.00061423634
-0.00014872057 86.58011 0.0003768674 0.00011147152 0.00048645778 -66.67184 -154703.38 51248.438
-47408.96 -212823.3 174860.28 -155545.44 14266.363 34941.336 -33214.06 46926.203
-80449.086 16056.764 -33215.54 1498.4697 1068.0098 -18039.434 -29654.236 -26311.98
-24393.512 -16951.648 -16941.633 -11451.262 -4279.4634 -10822.365 -16850.605 3507.1138
-6745.042 -1965.0112 -946.2744 798.0781 -1713.8888 1604.6589 -158.08008 2270.1113
-9063.346 -8271.227 840.6719 2945.1685 547.78845 3042.2134 -1.0683922 -0.54565686
-0.19364007 -0.45216593 0.037889812 -0.10890182 0.013731733 0.058469027 0.015557852 -0.0050278604
0.00047957047 -6.429929e-05 -0.0003559461 77.734985 2.494229e-06 0.00059366995 -0.00012483804 81.91385
00000000: 8ad0 073a 151c b0b8 c678 7bb9 7775 9542
00000010: dbf2 3238 da3b 1b3a d906 02b9 9547 a342
00000020: 8961 8039 f03c bf38 3488 083a db57 85c2
00000030: 0024 67c7 ae16 3447 1cf4 6c46 44a4 eac7
00000040: ea84 3f48 31e4 19c8 9a47 a9c5 e8c5 2347
00000050: c47b d9c6 2c54 6e47 6f68 8ac7 806b 4e46
00000060: cef9 d2c6 5eb7 f2c5 a848 5fc6 c0e3 93c5
00000070: 30ee f4c6 e2da 8ec6 087c d3c6 0f7b bbc5
00000080: 3653 6cc6 b205 28c6 2e37 c0c5 dbf7 8ec6
00000090: bd38 62c6 8e61 6045 5d49 e7c5 9468 18c5
000000a0: af59 00c5 f975 0b45 f496 66c4 45b7 8cc4
000000b0: c04f 1642 3cad 32c4 f4f4 01c6 1449 fec5
000000c0: e2cc c744 fc78 7e45 cc52 8ec4 1c24 5945
000000d0: 0943 9dbf 7500 19bf 9e1d 20be 3390 99be
000000e0: af8d e53c 08c2 9bbd e022 2fbd c0a4 45bb
000000f0: 8ac2 193c 009a 823b 9acd ef39 506e 95b8
00000100: 76f3 b4b9 c06e a742 70ca 0737 17ac 1c3a
00000110: 16e0 e0b8 4cef a342 0858 b839 9271 9a38
00000120: 6c5f ef39 c957 85c2 b037 4fc8 d623 0dc7
00000130: 9a20 8d47 801f 04c8 3f1e 6448 25fd 18c8
00000140: 983c 25c6 fae0 2947 9c51 06c7 9241 6b47
00000150: 5164 8fc7 8018 06c4 e777 cac6 1eff d9c5
00000160: 7fc0 3cc6 848f 2dc6 29ed 0dc7 44f7 a7c6
00000170: c78e d1c6 2ca5 01c6 c0a2 6bc6 624b 0ec6
00000180: 9e8f c7c5 ff3c 8fc6 962b 6bc6 35e6 ab45
00000190: df12 d0c5 40e0 39c5 08e0 25c5 b913 f944
000001a0: 1eac 86c4 7e5d 47c4 70e1 5743 f892 c244
000001b0: b09a 1cc6 304e 05c6 a71b f244 a297 8945
000001c0: f48b aac3 853d 4445 d4d8 eabf c1c9 31bf
000001d0: 38d6 d6bc 40b4 83be aadc a73c c440 fcbd
000001e0: d731 80bd 40d8 cd3b a81e c43b c8ff 9b3c
000001f0: dbf4 eb39 f5c5 82b8 fe0c bbb9 740c 9f42
00000200: 2df3 40b7 c1c0 193a e196 01b9 8a27 a842
00000210: 9b23 bc39 687b b638 cfea ea39 de57 85c2
00000220: 4df4 1fc8 6023 0ec5 1ed5 45c7 1600 0ac8
00000230: 6a13 5848 1d1e 4cc8 05b3 e746 2350 0047
00000240: 90db 8fc6 595a 8147 38d9 c1c7 3011 09c5
00000250: f49b dfc6 90bf ccc5 9cc9 c8c5 c594 80c6
00000260: 5d0f 25c7 5033 d0c6 a0f0 bfc6 1cec 41c6
00000270: b39b 98c6 b34e 40c6 28fb 87c5 6dd1 58c6
00000280: 65ab 84c6 d9b5 d245 930f c8c5 d8cb 1ac5
00000290: 64e0 b7c4 5097 e944 e808 33c4 40bd b041
000002a0: 9437 1c44 54a4 4bc4 19ac 10c6 2d85 09c6
000002b0: 1d7f 1f45 37a1 5745 93cd 35c4 5441 4f45
000002c0: 9398 c0bf 5ad6 c5be 1e6e 53be 874e 8bbe
000002d0: 70b1 0d3d b4c5 a0bd e41c c83c 1807 14bd
000002e0: e6e7 203c 4030 ecbb 43fc 003a a7ea 89b8
000002f0: 4c21 c6b9 321e 9f42 4e2c 98b7 b404 213a
00000300: e0f1 1bb9 0429 ad42 4996 c539 d1c5 e938
00000310: 420b ff39 fb57 85c2 d813 17c8 7030 4847
00000320: f630 39c7 d3d5 4fc8 12c3 2a48 5ce6 17c8
00000330: 74e9 5e46 567d 0847 0fbe 01c7 344e 3747
00000340: 8b20 9dc7 0ee3 7a46 8abf 01c7 084f bb44
00000350: 5080 8544 deee 8cc6 79ac e7c6 f68f cdc6
00000360: 0693 bec6 4c6f 84c6 445b 84c6 0ced 32c6
00000370: b5bb 85c5 7619 29c6 36a5 83c6 d231 5b45
00000380: 56c8 d2c5 5ca0 f5c4 9091 6cc4 0085 4744
00000390: 713c d6c4 1695 c844 8014 1ec3 c8e1 0d45
000003a0: 629d 0dc6 e83c 01c6 002b 5244 b212 3845
000003b0: 76f2 0844 6a23 3e45 13c1 88bf 2bb0 0bbf
000003c0: 9549 46be 4b82 e7be 5932 1b3d eb07 dfbd
000003d0: 10fb 603c 387d 6f3d 5ce6 7e3c c0c0 a4bb
000003e0: dc6e fb39 6bd8 86b8 479e bab9 5078 9b42
000003f0: 8762 2736 84a0 1b3a f5e6 02b9 e4d3 a342
